…
        "outputId": "c133c533-bcff-4810-89ac-30e42827eb85"
      },
      "source": [
        "nn=Model()\n",
        "nn.summary()\n",
        "nn.train(train_data,validation_data)"
      ],
      "execution_count": 74,
      "outputs": [
        {
          "output_type": "stream",
          "text": [
            "Model: \"sequential_29\"\n",
            "_________________________________________________________________\n",
            "Layer (type)                 Output Shape              Param #   \n",
            "=================================================================\n",
            "conv2d_105 (Conv2D)          (None, 149, 149, 8)       40        \n",
            "_________________________________________________________________\n",
            "max_pooling2d_103 (MaxPoolin (None, 74, 74, 8)         0         \n",
            "_________________________________________________________________\n",
            "conv2d_106 (Conv2D)          (None, 73, 73, 32)        1056      \n",
            "_________________________________________________________________\n",
            "max_pooling2d_104 (MaxPoolin (None, 36, 36, 32)        0         \n",
            "_________________________________________________________________\n",
            "conv2d_107 (Conv2D)          (None, 35, 35, 64)        8256      \n",
            "_________________________________________________________________\n",
            "max_pooling2d_105 (MaxPoolin (None, 17, 17, 64)        0         \n",
            "_________________________________________________________________\n",
            "conv2d_108 (Conv2D)          (None, 16, 16, 128)       32896     \n",
            "_________________________________________________________________\n",
            "max_pooling2d_106 (MaxPoolin (None, 8, 8, 128)         0         \n",
            "_________________________________________________________________\n",
            "flatten_29 (Flatten)         (None, 8192)              0         \n",
            "_________________________________________________________________\n",
            "dense_59 (Dense)             (None, 128)               1048704   \n",
            "_________________________________________________________________\n",
            "dense_60 (Dense)             (None, 2)                 258       \n",
            "=================================================================\n",
            "Total params: 1,091,210\n",
            "Trainable params: 1,091,210\n",
            "Non-trainable params: 0\n",
            "_________________________________________________________________\n",
            "Epoch 1/20\n",
            "63/63 [==============================] - 2s 20ms/step - loss: 0.7409 - acc: 0.4984 - val_loss: 0.6886 - val_acc: 0.5280\n",
…
