…
        "outputId": "4c27c18a-8ba6-4de5-f1d3-48d78a35ee6e"
      },
      "source": [
        "nn=Model()\n",
        "nn.summary()\n",
        "nn.train(train_data,validation_data)"
      ],
      "execution_count": 12,
      "outputs": [
        {
          "output_type": "stream",
          "text": [
            "Model: \"sequential_4\"\n",
            "_________________________________________________________________\n",
            "Layer (type)                 Output Shape              Param #   \n",
            "=================================================================\n",
            "conv2d_12 (Conv2D)           (None, 148, 148, 8)       80        \n",
            "_________________________________________________________________\n",
            "max_pooling2d_12 (MaxPooling (None, 74, 74, 8)         0         \n",
            "_________________________________________________________________\n",
            "conv2d_13 (Conv2D)           (None, 72, 72, 32)        2336      \n",
            "_________________________________________________________________\n",
            "max_pooling2d_13 (MaxPooling (None, 36, 36, 32)        0         \n",
            "_________________________________________________________________\n",
            "conv2d_14 (Conv2D)           (None, 34, 34, 64)        18496     \n",
            "_________________________________________________________________\n",
            "max_pooling2d_14 (MaxPooling (None, 17, 17, 64)        0         \n",
            "_________________________________________________________________\n",
            "flatten_4 (Flatten)          (None, 18496)             0         \n",
            "_________________________________________________________________\n",
            "dense_8 (Dense)              (None, 126)               2330622   \n",
            "_________________________________________________________________\n",
            "dense_9 (Dense)              (None, 2)                 254       \n",
            "=================================================================\n",
            "Total params: 2,351,788\n",
            "Trainable params: 2,351,788\n",
            "Non-trainable params: 0\n",
            "_________________________________________________________________\n",
            "Epoch 1/10\n",
            "63/63 [==============================] - 2s 17ms/step - loss: 0.8825 - acc: 0.4970 - val_loss: 0.7173 - val_acc: 0.5210\n",
…
